model_ws30.pth (torch, 3387 bytes, 3 tensors)

conv.0.weight f4 [8, 8, 3]
00000000: 7549 7abd b3ea 6abe 9cb7 a4bd c305 b73e
00000010: 53af c93e d9b2 ea3e b118 d33e 7530 c33e
00000020: be30 d13e 2bfe 663e a1fe 793e 2614 b63b
00000030: 60bc 49bd 7d77 94bc 4c24 853e 09a6 e9be
00000040: fe3d e9be c9c4 e9be 0e62 813e 65d0 393e
00000050: 4612 103d 37e1 d8be 1ed9 debe 6d3e 94be
00000060: e2f5 e73c 62dc 023e 1feb a4bc 807a 3fbe
00000070: 1805 33bd 8ec0 103e 1b11 823c 07ae d33d
00000080: a1a1 54be 19e7 a1bd 3936 c1bc a5de b23d
00000090: 45be 1a3e 18b6 b83d 8b1b acbd a8ab 97bd
000000a0: 02bd 81bd 2b39 1d3e 94ee 9fbc f09c 3cbe
000000b0: 532a 643e 6246 54be b167 003e 62af d5bd
000000c0: 3361 003f 1305 cf3e 38fa 723e c3ab 17be
000000d0: 0df3 193d 0160 9fbe 5e26 553c 9eed ecbd
000000e0: 896e 03bd bd71 813e 0651 fc3c a0ac 5c3e
000000f0: f046 cb3e 105f ef3e 0998 5a3e 1ead d53e
00000100: 28a1 ea3e 7ba3 b83e 276d d83d bb24 963e
00000110: 0db6 933e de6c 3f3f 5030 493f f97e 1c3f
00000120: 2dab c03e 6155 e83e b0ba 183e a53f 1ebd
00000130: 0ac1 23be d3ad b6bc f417 343e d4e6 b03c
00000140: ebc7 573e a3e2 103e cdc6 5e3c 9545 743d
00000150: 5cbe 603e df51 ec3d 8da8 743e ff7e 5f3e
00000160: 5056 8b3e cf52 d23e ae4a 983e d7aa 933e
00000170: 2d43 dd3e b831 343f c708 3d3f 170b 093f
00000180: 87f3 b73d fb74 3ebe a1f2 aabc 34fb fb3e
00000190: 2973 223f 3537 e53e 5d9c 8e3d 7cab 8d3e
000001a0: da91 483e cda8 07bd 2de8 303e a309 2fbe
000001b0: 8dad 313e 3d70 cdbd cf0f c33d efcd 30be
000001c0: 434e ffbd 85c1 62bd 9664 abbc dae1 2bbe
000001d0: cc2b 94bd e1fb 28bf 6543 dabe 58cb 27bf
000001e0: dbb7 b83d d06f 0b3e bdb5 78bd b7a8 55be
000001f0: 1e5a c83d f37f b53d 0185 443d 0e77 933d
00000200: 7c25 9d3d 051f 3fbe 18d0 f1bd d0e3 fabc
00000210: 63d6 433d 874e 19be 3d11 29be 28fc 143e
00000220: 0164 1dbe 31f2 0fbe 5a02 d33d eeb4 603c
00000230: 0846 cc3c 90c9 8f3d ac77 eebd a8bf 023e
00000240: 88f3 53ba 6e45 8abe 499b 96be f4e7 ea3e
00000250: 0585 1b3f aaec 053f a0d5 ea3e 187d 983e
00000260: bce1 9c3e cbb7 523e 1bbd 823e 0197 363e
00000270: e5f1 a03e 3f76 18bd c711 2a3e 09be 06bf
00000280: 2878 07bf 1afd e4be dfad 423e 17cb 9e3c
00000290: bd1e 103d c6d5 f8be a30b 0abf de13 cabe
000002a0: 006a 19be 22d2 2fbe 77eb 7cbe aa60 1a3f
000002b0: 89d5 be3e 2581 2e3f f750 713e c5ae 443e
000002c0: 6bb5 a23e 6d89 1a3e 555f a23d 5436 febd
000002d0: a6aa 793d f7cf aebd 4ed9 da3d e740 b0be
000002e0: c3ae efbd a83d b33c 87af 3bbb 52e6 0bbe
000002f0: 98e6 bc3d fe19 f7be 7fe1 c9be 73c1 12bf
-0.06110521 -0.22941093 -0.08042833 0.35746583 0.39391574 0.45839575 0.41229776 0.38122907
0.408575 0.22557895 0.2441354 0.005556601 -0.049251914 -0.018123383 0.26004255 -0.45634487
-0.4555511 -0.45657948 0.25270122 0.18145902 0.035173677 -0.42359325 -0.43525022 -0.28953877
0.028315488 0.12779382 -0.020131646 -0.18699074 -0.04370603 0.14135954 0.015877297 0.103359275
-0.20764782 -0.079054065 -0.023585426 0.08733872 0.15111645 0.090191066 -0.08403691 -0.07405788
-0.063348785 0.15353839 -0.019522943 -0.18419242 0.2228177 -0.20729974 0.12539555 -0.10433842
0.50148314 0.4043356 0.23728263 -0.14811616 0.037585307 -0.31127933 0.013009636 -0.115687594
-0.032087836 0.25282088 0.030800354 0.21550226 0.3970256 0.46752214 0.2134706 0.4173364
0.45826077 0.36062226 0.10567694 0.29324898 0.2884983 0.74775493 0.78589344 0.61131245
0.37630597 0.4537764 0.14914966 -0.038634915 -0.15991607 -0.022299683 0.17587262 0.021594442
0.21072356 0.14148955 0.0135972025 0.05963667 0.21947616 0.11539053 0.23892422 0.21825789
0.2721429 0.41078803 0.29744476 0.28841278 0.43215314 0.70388365 0.7384152 0.53532547
0.08981996 -0.18599312 -0.020867648 0.4921509 0.6345697 0.44768682 0.06963418 0.27669895
0.19586888 -0.033119965 0.17276068 -0.1709352 0.1735136 -0.100311734 0.095244996 -0.17266057
-0.12466099 -0.055360336 -0.020921987 -0.16785374 -0.07234916 -0.66009337 -0.42629543 -0.6554465
0.09019443 0.13616872 -0.060720194 -0.20865141 0.097828135 0.08862295 0.047978405 0.07200442
0.07673165 -0.18664177 -0.11807269 -0.030626208 0.047811877 -0.14971362 -0.16510482 0.14549315
-0.1537018 -0.14057232 0.10303183 0.013715012 0.024935737 0.07020867 -0.11643919 0.12768424
-0.00080853 -0.27006096 -0.29415348 0.4588009 0.60749847 0.52314246 0.45866108 0.2978294
0.30640972 0.20577924 0.255349 0.17831041 0.3143455 -0.037222143 0.16608344 -0.5263372
-0.5291772 -0.4472435 0.19011639 0.01938395 0.035185564 -0.48600596 -0.53924006 -0.39468282
-0.14981842 -0.17170003 -0.24699198 0.6030375 0.3727229 0.6816581 0.23566042 0.19207294
0.31779036 0.15091486 0.079283394 -0.12412706 0.06095376 -0.0853576 0.10685979 -0.34424517
-0.11703255 0.021879986 -0.0028638558 -0.13662079 0.0922367 -0.48262018 -0.39429852 -0.5732643

conv.0.bias f4 [8]
00000000: 5198 f03e fec8 4dbe 4f38 6abe d1b5 d6bd
00000010: dead e43e 4f75 cdbd 766c 113f d5fa c73e
0.46991208 -0.20096204 -0.22873043 -0.104838975 0.446639 -0.100321405 0.56806123 0.39058557

fc.weight f4 [1, 8]
00000000: 3a28 633f 2e45 273d 0ac8 68bf 5573 2bbf
00000010: 3c64 2d3f b081 e23d 4827 643f baec 303f
0.88733256 0.04083746 -0.90930235 -0.6697286 0.6773107 0.11059892 0.8912244 0.69111216
