model_ws90.pth (torch, 3387 bytes, 3 tensors)

conv.0.weight f4 [8, 8, 3]
00000000: 439e 9e3e ae95 bd3e 40ce d63e f698 cfbe
00000010: c22a d3be 34ba a4be d3dc 37bf 112e 21bf
00000020: ef80 1dbf fcf8 1f3e f953 393d 343c 153e
00000030: a818 843e 3cc6 923d ff6b e63c 0547 a83e
00000040: 4d51 af3e d7a2 e83e 597d 043d f7c3 9c3e
00000050: 2d83 7a3d 08c7 153f 2929 3f3f c4e9 ea3e
00000060: 419a 1c3e 8646 f0bd ecd0 ba3c 4dde 2b3e
00000070: 7bf2 273e 4e54 653d 3abf cebc c2dc 57be
00000080: 3ca3 14bd 583b 6fbd 6547 53be 5b0c 5c3d
00000090: 980b 46bb 8f81 8dbb 7d42 28be 3dbf a63c
000000a0: 42b5 b83d 397c c2bd 2976 24bd a631 00be
000000b0: cb5f 2d3d 0d74 b23d dd60 bd3c 1f75 3bbe
000000c0: 7946 b33e 57f5 e63d 7393 fb3e 54d7 fcbe
000000d0: 6253 49be e020 01be 965d d0be 95a0 00bf
000000e0: f001 d7be 8da7 65bd c7b2 8a3c a9c4 403e
000000f0: 456d 8cbd a7af 963e f256 733e ae52 a23e
00000100: ca06 ee3e dba2 383e acd6 dd3d a572 823e
00000110: 1787 973e fca7 403f 7735 053f 1608 133f
00000120: c0b4 503d 6462 ea3d 9ccc dc3d 075c 2abe
00000130: 4656 09be 841b a03d 40bb f33b 2e7c 103e
00000140: 34d6 9abd 90aa 4ebe 1988 f6bc 685b 83bd
00000150: e488 8b3d 003c 39bd dc44 f9bc ded5 2a3e
00000160: a6fe d1bd 7886 1cbe 5850 cc3d 66cb 38be
00000170: f07d 2e3b 4cb8 c6bc dc9a c43c ec9f 663d
00000180: e49d 093e fd96 6d3e b155 d13e d545 c8be
00000190: 7f42 86be 9293 f0bd dcb4 c9be 24fe e9be
000001a0: 44fe 23bf 2735 663e 9544 163e f67f d63d
000001b0: 7502 ab3d 5dc7 793e bc9e 683d 29d1 b53e
000001c0: 0dd0 7e3d 463e ce3d 6e0b 003e 547f 5c3e
000001d0: ddb6 7dbc 75e9 2b3f 76df 2a3f 5276 0c3f
000001e0: 52ce 373e d336 903e e923 3e3e 9a00 d3be
000001f0: 1d2f ecbe 7fce 90be f1db 07bf cca8 30bf
00000200: b024 44bf 72c2 66bd 5f57 533e 0fc0 803e
00000210: 94a7 803e d8aa a43e 5c4c 6b3d f8ad 303e
00000220: c8ab 7d3e ad59 da3e 894b 793e 632f 583e
00000230: 7ea0 f63d 4ab4 393f c64b 0d3f 3b81 143f
00000240: 382c 0abf ed3f e0be dd2f 06bf 9611 083f
00000250: 88f2 223f 7e9d d33e 0972 653f 8844 873f
00000260: 9851 813f 6db2 bb3e ea61 543e 23eb 573e
00000270: 8613 d53e 94b4 a63e eb42 b03d 9b54 23bf
00000280: 9c62 11bf d4df 0abf 0690 8d3e e2f4 943e
00000290: 5cc9 253e b7a2 c5be 5ac8 84be 2aad 0ebf
000002a0: 0d8a 383e 0ac4 dd3e 3160 063f 304b f5bd
000002b0: 41d3 71be 5a0d 41bd 8d97 44bf 0045 20bf
000002c0: 21c2 41bf eea3 b03d 7f08 c93c 50b0 83bd
000002d0: 17f2 9b3e 4ce5 293e 379f 4e3e dc14 5a3e
000002e0: 9c59 d53e f9ea 2e3d 4d13 9e3c b883 aabd
000002f0: 84e6 0739 40f2 f13e 6b81 123f 20cb 423f
0.3098012 0.3702826 0.4195423 -0.40546387 -0.4124356 -0.32173312 -0.71821326 -0.62960917
-0.6152486 0.15622324 0.0452461 0.14573747 0.2580006 0.071667165 0.028127668 0.32866684
0.34241715 0.45436737 0.032346103 0.3061826 0.061160255 0.5850682 0.7467218 0.45881474
0.15293218 -0.11732201 0.0228047 0.1678402 0.16401093 0.055988602 -0.025237668 -0.21080306
-0.036288485 -0.058406204 -0.20632704 0.05372272 -0.0030219313 -0.004318423 -0.16431613 0.020354861
0.09018947 -0.0949635 -0.04015175 -0.1251894 0.042327683 0.08713541 0.023117477 -0.18306397
0.35014704 0.112772636 0.49135932 -0.49383032 -0.19660714 -0.12610197 -0.406964 -0.5024503
-0.41993666 -0.056067992 0.01693095 0.1882502 -0.06856779 0.29430887 0.23763636 0.31703705
0.46489555 0.18030874 0.10831961 0.25478092 0.29595253 0.75256324 0.52034706 0.57434213
0.050953627 0.11444548 0.10781214 -0.16636668 -0.13411817 0.07817748 0.0074380934 0.14109871
-0.07560387 -0.20182252 -0.030094193 -0.06413919 0.06813219 -0.045223236 -0.030428343 0.16683146
-0.102536485 -0.15285671 0.09976262 -0.1804634 0.0026625358 -0.024257801 0.023999624 0.056304857
0.13439137 0.23202129 0.4088569 -0.39115778 -0.26222607 -0.11746897 -0.39395797 -0.45701706
-0.64059854 0.22481214 0.146746 0.10473625 0.08350078 0.24392457 0.056792006 0.3551114
0.06221013 0.100704715 0.1250436 0.21532947 -0.015485493 0.671531 0.66747224 0.5486804
0.17949799 0.28166828 0.18568386 -0.41211396 -0.46129695 -0.28282544 -0.5306998 -0.69007564
-0.7661848 -0.05633778 0.20638798 0.2514653 0.25127852 0.32161593 0.05744587 0.17253864
0.2477256 0.42646542 0.2434522 0.21111827 0.1204233 0.72540724 0.55193746 0.5800969
-0.5397372 -0.43798772 -0.52416784 0.53151834 0.63651323 0.41331095 0.8962713 1.0567789
1.0103025 0.36659566 0.20740476 0.21085791 0.41616458 0.32559645 0.086065136 -0.6380097
-0.5679109 -0.54247785 0.27648944 0.2909308 0.16190094 -0.38600704 -0.25934106 -0.5573298
0.18021412 0.43313628 0.52490526 -0.119772315 -0.23615743 -0.047131874 -0.7679375 -0.62605286
-0.7568684 0.08625017 0.024540184 -0.06430113 0.30458137 0.16591376 0.20177923 0.2129702
0.4166993 0.042704556 0.019296313 -0.083259046 0.00012960477 0.47255135 0.57228726 0.76091194

conv.0.bias f4 [8]
00000000: 9374 bebd e5f2 eebd 40e0 9dbe a7d1 ccbd
00000010: bb9f f5bd f929 cdbd d0c9 353f 1f19 83be
-0.092995785 -0.11667422 -0.30835152 -0.100009255 -0.11993357 -0.10017771 0.71011066 -0.25605103

fc.weight f4 [1, 8]
00000000: 8827 96bf 2cac d83d ed4e 27bf 33cc ba3d
00000010: ee66 59bf 3d36 42bf dca0 483f bdf4 b0bf
-1.1730814 0.10579714 -0.65354806 0.09120979 -0.84922683 -0.7586401 0.7837045 -1.3824688
