model_ws270.pth (torch, 3397 bytes, 3 tensors)

conv.0.weight f4 [8, 8, 3]
000000 a6 a5 0e 3e 0d 32 01 3f 61 f1 ba 3e 3b fd 97 3c
       0.13930377 0.50466996 0.36512282 0.018553367
000010 1f 26 1c 3d f1 e5 be bc 44 31 06 bf dc 16 3c be
       0.038122293 -0.023303004 -0.52418923 -0.18368095
000020 18 f1 45 be 85 14 54 3e f1 1f 53 3d 01 23 d4 3d
       -0.19330251 0.20710953 0.051544134 0.10358239
000030 c5 93 17 3f 1c 35 13 3f 10 00 2b 3f 12 57 92 3f
       0.59209853 0.57502913 0.6679697 1.1432822
000040 2b 92 80 3f ef ff 83 3f ed dd 08 be 06 ed bf 3d
       1.0044607 1.031248 -0.13365908 0.093713805
000050 1d f0 f6 bd f0 59 0e 3f 74 4f d6 3e 28 a0 1d 3f
       -0.12057517 0.55605984 0.41857493 0.61572504
000060 2c 1d 53 bc ab 0b b0 3d e2 4f 38 3e 28 8d 56 be
       -0.012885373 0.085959755 0.17999223 -0.20952284
000070 af 0d 06 3d c1 f7 8e be b2 80 70 be 7c 67 07 bf
       0.032727893 -0.27923396 -0.23486593 -0.5289228
000080 80 27 0e bf b8 c3 a9 3d b2 37 57 3e 12 1d a9 3e
       -0.5552902 0.082892835 0.2101734 0.3302999
000090 0a 4f 6d 3e 4c ee 0f 3f 50 3d 18 3f b7 42 21 3f
       0.23174682 0.5622299 0.59468555 0.62992424
0000a0 09 43 38 3f 52 4c 3d 3f 39 8e 24 bd 5e a0 17 3e
       0.7197729 0.7394458 -0.040174697 0.14807269
0000b0 f0 17 b9 bd 3d 76 c4 3e d7 ac d7 3e 63 c5 c1 3e
       -0.09037769 0.3837146 0.42124054 0.37845907
0000c0 4b 6a b9 bd 09 c7 a7 be cd 9a 87 be 4e d1 e2 3e
       -0.09053477 -0.3276904 -0.2648529 0.44300312
0000d0 f5 2f e4 3e 2d 9d 97 3e fb bc 3e 3f 56 66 81 3f
       0.44567838 0.29612103 0.7450711 1.0109355
0000e0 c0 f4 5b 3f d3 12 05 3e 20 7e 81 bd 2a 7b 02 3e
       0.85920334 0.12995462 -0.063228846 0.12742296
0000f0 9c 80 38 be 0a 62 19 bd 85 dc 4c be b3 18 0b bf
       -0.1801781 -0.037447013 -0.20005997 -0.54334563
000100 2f e7 24 bf 12 2a 3e bf 4c 38 da 3e e4 19 22 3e
       -0.6441526 -0.74282944 0.42621076 0.15830189
000110 6e e0 80 3e be f5 98 be cf 08 ae bd 87 cd 85 be
       0.25171226 -0.29874986 -0.08497774 -0.26133367
000120 88 63 07 be fa 82 ec bd 99 94 52 be 6e 90 00 3f
       -0.13221562 -0.11548419 -0.20564498 0.5022038
000130 95 7e a5 3e 38 7c f3 3e b2 3f 4e 3f ad 19 34 3f
       0.32323137 0.4755571 0.8056594 0.7035168
000140 04 1b 40 3f 27 a8 37 3d 02 be c8 3d 5d 55 5e 3e
       0.7504122 0.044838097 0.09801866 0.21712251
000150 52 eb 47 be 70 ce eb 3d 92 9c 70 be b4 e9 46 bf
       -0.19523361 0.11513984 -0.23497227 -0.7770035
000160 90 1b 4c bf c7 1d 3c bf a4 3f 94 3e 2d f6 37 3e
       -0.7972956 -0.73482937 0.28954804 0.17965002
000170 90 8e 44 3e 0a ea 3e be 95 2f 0e be ce 15 38 be
       0.19195008 -0.18643966 -0.13885339 -0.17977068
000180 13 ca 86 bf 03 b3 8f bf 06 87 8f bf 1f 15 10 40
       -1.0530418 -1.1226505 -1.1213081 2.2512891
000190 38 12 0f 40 61 29 23 40 94 b2 ee 3d c6 74 22 3e
       2.235487 2.5494006 0.11655155 0.15864858
0001a0 fe ba 12 3e 2a 1f 2e bd d7 06 cb 3d 48 ec be bd
       0.14329144 -0.04251019 0.09913414 -0.09322411
0001b0 d2 31 17 bd c5 6e d1 bd 7c da 16 bc 3d b1 76 3f
       -0.036912747 -0.10226206 -0.009207364 0.96364194
0001c0 eb b7 56 3f 06 1e 2e 3f b4 77 24 be a5 bf 34 be
       0.83874387 0.6801456 -0.16061288 -0.17651232
0001d0 73 3d 25 be 1c cf b7 c0 4e 49 b6 c0 8e d8 b9 c0
       -0.16136722 -5.744032 -5.6964483 -5.807685
0001e0 11 0f 9f be 4e a7 8d be 2c c0 0f be 3e 6a 6f 3e
       -0.31066182 -0.27666706 -0.14038152 0.23380372
0001f0 87 b8 11 3e 2e 5d e2 3e 81 ef 46 3f 2a ca 75 3f
       0.14230548 0.44211715 0.77709204 0.960116
000200 dc bc 4c 3f 71 48 7f 3e 29 bd 37 3e a7 77 94 3e
       0.79975677 0.24929978 0.17943253 0.28997537
000210 74 b4 9c 3d 65 fb 08 3d 69 46 f4 bd f4 49 2b bf
       0.07651606 0.033442874 -0.11927492 -0.6690972
000220 32 2c 82 bf 01 ae 2b bf 82 58 95 3e 16 43 35 3e
       -1.0169737 -0.67062384 0.2916909 0.17701373
000230 49 3b 95 3e d3 4c 36 3c c9 8d ae be 59 b3 a7 be
       0.29146793 0.011126715 -0.34092548 -0.3275402
000240 d5 35 5c 3e 0c 3c 13 bd 3c b4 3b 3e f1 32 3f bd
       0.2150491 -0.035945937 0.18330473 -0.04667944
000250 9b 76 92 bd d3 c3 2f 3d 5d 8f d8 be 3c bd 0a bf
       -0.071515284 0.042911362 -0.42296878 -0.54195
000260 b7 1a b5 be 82 06 ab 3e e2 7f 8b 3e 71 e4 3f 3e
       -0.35371944 0.33403403 0.27246004 0.18739487
000270 b5 f5 1d 3f a6 a1 b7 3e 4b 2c f5 3e ff 07 50 3f
       0.61703044 0.35865515 0.47885355 0.812622
000280 cb cc 47 3f 93 fe 08 3f a2 b3 e7 3d 93 22 49 3e
       0.78046864 0.5351345 0.11313559 0.19642095
000290 e5 32 1b 3e 27 43 40 3e de 54 f8 3e dd 54 a0 3e
       0.15156133 0.18775617 0.4850225 0.31314746
0002a0 dc c7 24 3d c7 ce 3f be dc 76 04 3d d2 c1 04 3e
       0.040229663 -0.18731223 0.032339916 0.12964562
0002b0 64 16 34 3e ba 7d b1 bd 0e c3 4b 3e cc c2 a5 3d
       0.17586666 -0.086665586 0.19898626 0.08093795
0002c0 2e 42 15 be 58 a7 a1 3d f0 79 6b 3d f8 93 f9 bc
       -0.14576027 0.078932464 0.057489336 -0.030466065
0002d0 7f d9 cb bd c8 92 18 be 4a e9 2e 3e 8b d8 d2 bd
       -0.099535935 -0.14899743 0.1708118 -0.102952085
0002e0 d0 e6 11 3e 6a fb 10 be 50 23 85 bc c0 64 06 be
       0.14248204 -0.14158407 -0.01625219 -0.1312437
0002f0 73 07 3a be fe c6 41 be c8 0e 07 bc d4 90 89 bd
       -0.18166904 -0.18923566 -0.00824327 -0.06717077

conv.0.bias f4 [8]
000000 f7 0e 1c be fa 5e 35 bd 9f 2c f9 3e 58 fc 1e 3f
       -0.15240084 -0.04428003 0.48666856 0.62103796
000010 a5 e6 d0 bd 3b 3a 1d 3f 7d 34 aa 3c 55 b7 ea bd
       -0.10200242 0.6141698 0.020776981 -0.11460749

fc.weight f4 [1, 8]
000000 fb c7 3a bf 4c c7 88 bf 2c b7 6b 3f 70 ef 83 3f
       -0.72961396 -1.068582 0.92076373 1.0307446
000010 bf cc b1 40 a6 19 1b 3f 5b 94 4a bf a8 78 4f 3d
       5.5562434 0.6058601 -0.7913262 0.050652176
